binaryHandwritingModel.pt (torch, 74070 bytes, 10 tensors)

conv1.weight f4 [2, 1, 5, 5]
0	0xbe43e477	-0.19130121
1	0x3da57d7b	0.08080574
2	0x3e324006	0.17407236
3	0x3d82b0a1	0.063813455
4	0x3d5c1741	0.053733114
5	0xbddb9243	-0.107212566
6	0xbe46d02c	-0.19415349
7	0x3d7deea5	0.061995167
8	0xbcd75224	-0.026284285
9	0xbd743f77	-0.059630837
10	0xbc94e497	-0.018175406
11	0xbe5dae3d	-0.21648498
12	0xbe034197	-0.1281799
13	0x3de5b1ed	0.11215577
14	0x3e048370	0.12940764
15	0x3d3125f8	0.0432491
16	0xbe48d40d	-0.19612141
17	0x3e16bd0d	0.14720555
18	0xbda49859	-0.080368705
19	0x3dc3f9c8	0.09569126
20	0xbd160d60	-0.03663385
21	0x3dd5547e	0.10416506
22	0x3d9b5357	0.07584255
23	0xbccdfefc	-0.025146
24	0x3de68a22	0.112568155
25	0xbdb06cb8	-0.086144865
26	0x3db65540	0.08902979
27	0x3e2a66e2	0.16640809
28	0xbe696a29	-0.22794403
29	0x3cdd1e21	0.026991906
30	0xbd379088	-0.04481557
31	0xbc40a8bc	-0.011758979
32	0xbbe36fce	-0.0069408184
33	0xbe4723b9	-0.19447221
34	0xbdc8f5dc	-0.09812519
35	0x3df7354e	0.12070714
36	0x3c97ff7a	0.018554438
37	0x3df1297d	0.117754914
38	0xbdbc3253	-0.09189286
39	0xbd2c944a	-0.042133607
40	0x3dfe8f3b	0.12429663
41	0x3e26aab7	0.1627606
42	0xbdd4e14e	-0.10394536
43	0xbdbf3bd4	-0.09337583
44	0xbce85ea7	-0.028365446
45	0xbe127e62	-0.14306024
46	0x3df9534b	0.1217409
47	0xbde2a916	-0.11067407
48	0xbe71c967	-0.23611985
49	0x3d0d8062	0.034546264

conv1.bias f4 [2]
0	0xbddbbdff	-0.10729598
1	0x3db2c381	0.08728696

conv2.weight f4 [16, 2, 5, 5]
0	0x3d68ead8	0.05686459
1	0xbde5f2e2	-0.11227967
2	0xbda96bd8	-0.08272523
3	0xbdeba530	-0.115061164
4	0xbdb53dea	-0.088497
5	0x3d254a3c	0.040354
6	0xbc2df876	-0.01061832
7	0xbcd0fc7b	-0.025511017
8	0x3d8ce0da	0.068788245
9	0xbc9d3e2b	-0.019194683
10	0xbd9ad92f	-0.07560956
11	0x3dc7d3ce	0.097571954
12	0xbdbfabf0	-0.09358966
13	0xbc92f8ae	-0.017940845
14	0xbdbccb98	-0.0921852
15	0x3d870f5f	0.06594729
16	0xbd221aaa	-0.03957621
17	0xbd13e748	-0.03610924
18	0x3db36ac1	0.08760596
19	0xbd9e27fc	-0.0772247
20	0x3d17e560	0.037083983
21	0xbd8d84e0	-0.069101095
22	0xbda27aeb	-0.07933601
23	0x3df9285d	0.12165902
24	0xbde337cf	-0.11094629
25	0x3d290a99	0.041269872
26	0xbda800d7	-0.08203285
27	0x3e09048c	0.13380641
28	0xbe05d1c5	-0.13068302
29	0x3bfc8f29	0.0077074957
30	0xbdda75f6	-0.106670305
31	0x3c94ce9b	0.018164923
32	0x3dc4dbb3	0.09612217
33	0xbd90d04e	-0.07070981
34	0xbc0f0fdc	-0.0087318085
35	0x3dbcd855	0.092209496
36	0xbdb3ab21	-0.087728746
37	0xbd5fdcf9	-0.054654095
38	0xbd6bcda6	-0.05756917
39	0xbccc92a4	-0.024972267
40	0x3c1ea4b6	0.009682825
41	0xbd23e664	-0.04001464
42	0x3e104eba	0.14092532
43	0xbdd0d38a	-0.10196598
44	0xbc3a84c5	-0.011384194
45	0x3c9133a6	0.017724823
46	0xbdf73788	-0.120711386
47	0xbd19815b	-0.03747688
48	0xbdc70021	-0.097168215
49	0xbd9a3311	-0.075292714
50	0x3db754c2	0.08951713
51	0xbe136fe5	-0.14398153
52	0x3b15f933	0.002288413
53	0xbc572f22	-0.013133796
54	0x3dc9ff24	0.09863117
55	0xbd8e3602	-0.06943895
56	0xbd347090	-0.04405266
57	0xbcb5d1f4	-0.02219484
58	0x3ddc0cf2	0.107446566
59	0xbd6a5f4c	-0.05721979
60	0x3cd16758	0.025561973
61	0xbe0b182d	-0.13583441
62	0xbdbb4735	-0.09144441
63	0x3d93c4e1	0.07215286
64	0xbd7e4ac1	-0.06208301
65	0xbd953848	-0.072861254
66	0xbcc7ab88	-0.024373785
67	0xbc899506	-0.016794693
68	0xbe251123	-0.16119818
69	0x3cd4a2c3	0.025956517
70	0xbcb5121b	-0.02210336
71	0xbd956b64	-0.07295874
72	0xbde72e24	-0.112880975
73	0xbdccc34b	-0.09998187
74	0xbe38697b	-0.18008988
75	0x3e040259	0.1289152
76	0xbd05ebf4	-0.032695726
77	0xbd2ecb9c	-0.042674646
78	0x3dabe2d9	0.08392877
79	0xbdf1e07a	-0.11810394
80	0x3de283b8	0.110602796
81	0x3e0ba510	0.13637185
82	0xba96ed64	-0.001151484
83	0xbe13119d	-0.14362188
84	0xbd77d18f	-0.060502585
85	0xbd4558b9	-0.048180316
86	0xbd7b5644	-0.061361566
87	0xbdc61499	-0.096718974
88	0xbd7419a9	-0.059594784
89	0xbde3ab4c	-0.11116657
90	0xbd2857c9	-0.041099343
91	0x3e0cbbe2	0.13743547
92	0xbda0b4eb	-0.07847007
93	0x3c264ff5	0.010150899
94	0xbe01c01c	-0.1267094
95	0x3d6c5a7c	0.05770348
96	0x3d6b004f	0.05737334
97	0xbd0154df	-0.03157508
98	0xbc1a9a18	-0.009436153
99	0xbd95108f	-0.07278549
100	0xbd573970	-0.05254501
101	0x3c13c75f	0.009019702
102	0xbde044d6	-0.109506294
103	0xbe0768eb	-0.13223617
104	0x3e0ddac5	0.13852985
105	0x3cfc25e9	0.030779796
106	0xbd2c7fc2	-0.042114027
107	0x3d6293e8	0.055316836
108	0x3dc968f0	0.09834468
109	0x3da4fb3d	0.080557324
110	0x3e05cb2d	0.13065787
111	0xbd2bde27	-0.041959908
112	0x3c23f749	0.010007688
113	0xbe0b3044	-0.1359263
114	0xbd0ae322	-0.033908017
115	0x3d934972	0.07191743
116	0xbd16a409	-0.03677753
117	0x3e11c6e9	0.14236034
118	0xbce593fa	-0.028024662
119	0xbe05bd5f	-0.1306052
120	0x3d5c4a9f	0.0537821
121	0x3d3a6ed5	0.045515854
122	0x3e1f9f2d	0.15588064
123	0xbcb5f311	-0.02221063
124	0x3dac1e8b	0.08404263
125	0xbcc6432a	-0.024201948
126	0x3c3776a9	0.011197724
127	0xbe259ab3	-0.16172294
128	0xbda697f0	-0.081344485
129	0x3e46ffc7	0.19433509
130	0x3e1e98b8	0.15487945
131	0xbcecf680	-0.028926134
132	0xbd6c18b8	-0.05764076
133	0x3e035d60	0.12828588
134	0x3cfb7373	0.030694699
135	0xbd0cd460	-0.034382224
136	0xbddc686c	-0.107621044
137	0xbc392a84	-0.01130164
138	0x3ce03079	0.027366864
139	0xbb66c96d	-0.0035215274
140	0x3e3b66e7	0.18300973
141	0xbcda988f	-0.026684074
142	0x3d15af8d	0.03654437
143	0x3d146601	0.03623009
144	0x3d83e3c3	0.064399265
145	0x3b2c5ba7	0.0026299746
146	0x3e2a5531	0.1663406
147	0xbd7b92ac	-0.061419174
148	0x3df8b1dc	0.12143299
149	0x3d287a86	0.041132472
150	0xbd7bc121	-0.06146348
151	0xbdd9e0af	-0.10638558
152	0xbda661d6	-0.081241295
153	0xbdcf386d	-0.10118184
154	0x3dd7abda	0.10530825
155	0xbcdde387	-0.027086033
156	0xbe1fe8b2	-0.1561611
157	0xbd0cdf68	-0.034392744
158	0xbdc1702c	-0.09445223
159	0xbe12717b	-0.14301102
160	0xbe020d52	-0.12700394
161	0xbdc0d0a1	-0.09414793
162	0x3bc25225	0.0059302025
163	0x3d963614	0.07334533
164	0x3dea8b1c	0.11452314
165	0xbdcf76b0	-0.1013006
166	0x3d9a5566	0.0753582
167	0xbd8a3e7f	-0.067502014
168	0xbdf1023e	-0.11768006
169	0xbdcaada8	-0.098964036
170	0xbd92e5f4	-0.07172766
171	0x3d1403ca	0.036136426
172	0x3d9e09ce	0.07716714
173	0xbd1a1641	-0.03761888
174	0x3de49402	0.11161043
175	0xbd1adea6	-0.03780999
176	0xbcfac488	-0.030611292
177	0xbda35cd6	-0.079766914
178	0xbd01ef3a	-0.031722285
179	0xbdbcf4b6	-0.092263624
180	0xbdeb87f6	-0.11500542
181	0x3dc56446	0.09638266
182	0xbdb0cc63	-0.08632734
183	0x3d427a68	0.047480017
184	0xbdf678c7	-0.12034755
185	0xbdebc69f	-0.11512493
186	0x3ddb50dc	0.10708782
187	0xbdf44f4c	-0.11929187
188	0xbdcf495a	-0.101214126
189	0x3c9bc058	0.019012615
190	0xbc70d640	-0.014699519
191	0xbded8194	-0.11596981
192	0xbd5c7b0e	-0.05382829
193	0x3dc721ca	0.097232416
194	0xbdd58424	-0.104255944
195	0xbd64d260	-0.05586469
196	0xbd451f08	-0.048125297
197	0x3ca00d70	0.019537657
198	0xbde569b6	-0.112018034
199	0x3dbb1515	0.091348805
200	0xbdae1843	-0.08500721
201	0xbdbc5482	-0.09195806
202	0xbcc0731a	-0.023492385
203	0xbce300de	-0.027710374
204	0x3c17875e	0.009248583
205	0xbcb3818b	-0.021912357
206	0x3dc56e51	0.09640182
207	0xbd0773e7	-0.033069517
208	0xb92925a8	-0.00016131124
209	0x3de6bb1f	0.11266159
210	0x3de6fd0b	0.11278733
211	0x3d09f67e	0.03368234
212	0x3d27a223	0.04092611
213	0x3d3c3f00	0.04595852
214	0x3ca0b1d3	0.019616043
215	0x3c168893	0.009187835
216	0x3dd91c21	0.10601068
217	0xbdf77146	-0.12082152
218	0xbdc64bf0	-0.09682453
219	0x3e0dc8af	0.13846086
220	0x3d89582d	0.06706271
221	0x3caa9482	0.020822767
222	0x3c376f5f	0.0111959865
223	0x3bb421fb	0.005497215
224	0xbda37b1f	-0.07982468
225	0x39a77c5c	0.00031945377
226	0xbdb03010	-0.08602917
227	0x3dc38a04	0.09547809
228	0x3dbcbc99	0.0921566
229	0x398219bb	0.00024814703
230	0xbd8cb23f	-0.06869935
231	0x3bcbef28	0.006223578
232	0x3dc66601	0.096874245
233	0x3d3d351d	0.04619323
234	0x3de687d6	0.112563774
235	0xbe1e01e6	-0.15430412
236	0xbdc1b378	-0.09458059
237	0x3dbd9c60	0.09258342
238	0x39b2151e	0.0003396654
239	0x3dfb83a9	0.122809716
240	0x3d56903c	0.052383646
241	0xbdea59c1	-0.114429004
242	0xbd9993f2	-0.074989215
243	0xbd84c4bc	-0.064828366
244	0xbc9b72f1	-0.018975707
245	0xbd3d1f8f	-0.046172675
246	0x3dbdc14a	0.092653826
247	0x3d1a3138	0.037644595
248	0x3e096f47	0.13421355
249	0x3d9631fe	0.07333754
250	0x3e15c0a5	0.1462427
251	0xba69fb55	-0.0008925696
252	0xbcc3bc50	-0.023893505
253	0x3d74e051	0.059784237
254	0xba88ff30	-0.0010452028
255	0x3df2c399	0.118537135

conv2.bias f4 [16]
0	0xbdae7943	-0.085192226
1	0x3d3bd629	0.045858536
2	0xbd97b50f	-0.07407581
3	0xbd88fa3e	-0.06688355
4	0xbd98faf8	-0.074697435
5	0x3cacacd9	0.021078514
6	0xbda1d4a1	-0.07901884
7	0xbd8ffea6	-0.07030992
8	0xbdca5856	-0.0988013
9	0xbdf118e1	-0.117723234
10	0x3d70a639	0.058752272
11	0xbd184a56	-0.037180267
12	0xbd99ea0a	-0.075153425
13	0xbdb00823	-0.08595302
14	0x3d43c8a4	0.047798768
15	0xbd4c3053	-0.049850773

fc1.weight f4 [64, 256]
0	0xbd619366	-0.05507221
1	0x3d3fc6d4	0.046820477
2	0x3bad8f10	0.0052965954
3	0x3ca54ab0	0.020177215
4	0xbd5a3990	-0.053277552
5	0xbd24cade	-0.04023253
6	0xbcb1aabc	-0.021687858
7	0xbc7a39b0	-0.015272543
8	0x3d2f47d2	0.042793103
9	0x3c6e26b8	0.014535598
10	0x3d3c0906	0.045907043
11	0x3b5fe4e0	0.003416352
12	0xb9acdd00	-0.00032971054
13	0xbd0d3bbc	-0.034480795
14	0xbcc0cb2c	-0.02353438
15	0x3d77336c	0.060351774
16	0xbd1a15c8	-0.03761843
17	0xbc3e34f8	-0.011609308
18	0xbd0c65d8	-0.034276813
19	0xbce14000	-0.027496338
20	0xbd43bb10	-0.04778582
21	0xbd0da1be	-0.034578077
22	0xbac7be80	-0.0015239269
23	0x3cb461a8	0.022019222
24	0xbcbf57e4	-0.02335734
25	0xbcc2cd48	-0.023779526
26	0x3d040f1c	0.032240972
27	0x3d2744c0	0.04083705
28	0x3d1cb590	0.03825909
29	0x3c9b0534	0.01892338
30	0x3ca33ac8	0.01992549
31	0xbd0e5996	-0.034753405
32	0xbac6ce40	-0.0015167668
33	0x3d417baa	0.047237076
34	0x3c2035c0	0.00977844
35	0x3d3b496a	0.04572431
36	0xbcd54a10	-0.026036292
37	0xbd53a0e2	-0.0516671
38	0xbd065a86	-0.032801174
39	0xbc92e96b	-0.017933568
40	0xbd165fb6	-0.03671237
41	0x3cdd5f70	0.027023047
42	0xbd1a24f8	-0.037632912
43	0x3d57ec75	0.052715737
44	0xbd61f1d0	-0.05516225
45	0xbd849c3c	-0.06475112
46	0x3d1fe646	0.039037965
47	0x3d78e34e	0.06076365
48	0xbc653838	-0.013990454
49	0x3a01d100	0.0004952103
50	0xbb927ef0	-0.0044706985
51	0xbd4f41b2	-0.05059976
52	0x3c4585f8	0.012055866
53	0x3d128e1e	0.035780065
54	0x3c9367b8	0.017993793
55	0x3cb84d38	0.022497758
56	0x3d348358	0.04407057
57	0x3ba06b00	0.004895568
58	0x3c9de2b4	0.01927314
59	0xbafedc80	-0.0019444376
60	0xbbe48080	-0.006973326
61	0x3b1df4e0	0.0024102256
62	0x3d10a4a2	0.035313256
63	0xbd4adc84	-0.049526706
64	0x3c91903b	0.01776897
65	0x3bb91102	0.0056477794
66	0xbd8d8331	-0.069097884
67	0x3a939f76	0.0011262733
68	0xbc4d5130	-0.012531564
69	0xbd9417fc	-0.07231137
70	0xbd55fdd8	-0.052244037
71	0xbbfe5aef	-0.007762305
72	0xbd2e0b36	-0.04249116
73	0x3a6eec5b	0.0009114199
74	0x3c3cd001	0.011524201
75	0xbd1fcb1f	-0.03901207
76	0xbcc71d86	-0.02430607
77	0xbd1067a9	-0.035255108
78	0x3bc1149a	0.0058923485
79	0xbdbb761b	-0.09153386
80	0x3d2e1e6c	0.04250948
81	0xbc867d73	-0.01641724
82	0x3d6d53bc	0.057941183
83	0x3d47feba	0.04882691
84	0xbcec0a9d	-0.028813655
85	0xbd5fa13c	-0.054597124
86	0xbc28d320	-0.010304242
87	0x3d76025c	0.060060844
88	0xbd30b606	-0.04314234
89	0x3c79e160	0.0152514875
90	0x3d1a3fde	0.037658565
91	0xbd229c62	-0.03969992
92	0x3d590950	0.052987397
93	0xbd6f02e2	-0.05835236
94	0x3caabd27	0.020842148
95	0xbbbae360	-0.0057033747
96	0xbd1ed8ea	-0.038781084
97	0xbd1fcd5a	-0.039014198
98	0xbd788133	-0.06067009
99	0x3cc8ff9b	0.024535945
100	0x398ea8a2	0.00027209992
101	0xbd772954	-0.060342148
102	0xbd73a110	-0.059479773
103	0xbb4cc928	-0.0031247828
104	0x3d000928	0.031258732
105	0x3c9c8a52	0.019108925
106	0x3c11a900	0.00889039
107	0xbd6bbd03	-0.057553302
108	0xbd6a75f4	-0.057241395
109	0xbd74b70a	-0.059744872
110	0xbd23b6e4	-0.03996934
111	0xbd31c9ba	-0.043405272
112	0xbd810d12	-0.06301321
113	0xbd824230	-0.063602805
114	0xbd5ce24f	-0.053926762
115	0xbd8a47c4	-0.067519695
116	0x3cdfa0e7	0.027298404
117	0x3ca3a984	0.019978292
118	0xbd7cda14	-0.061731413
119	0xbd213235	-0.03935452
120	0xbcd8fdd3	-0.02648822
121	0xbc603120	-0.013683587
122	0x3d510879	0.05103347
123	0x3c0e923d	0.008701858
124	0x3c8cda6d	0.017193997
125	0x3ce4f758	0.027949974
126	0x3c169547	0.009190864
127	0xbd4d855e	-0.050176017
128	0xbd676ec0	-0.056502104
129	0x3c6f9188	0.0146221
130	0xbd5bc302	-0.05365277
131	0xbbeac780	-0.0071648955
132	0xbcad5bf4	-0.02116201
133	0x3cbf487c	0.023349993
134	0x3d1b84c2	0.037968405
135	0x3cc245cb	0.02371492
136	0x3bfbcfc0	0.007684678
137	0xbcc0cd30	-0.023535341
138	0x3c8594c0	0.016306281
139	0xbd4c5705	-0.049887676
140	0x3d4a8474	0.049442723
141	0xbd55143c	-0.05202125
142	0xbc640448	-0.013917036
143	0xbc35bc40	-0.011092246
144	0xbc948ede	-0.01813453
145	0xbcd75edc	-0.02629035
146	0x3d158117	0.036500063
147	0x3c880e78	0.016608462
148	0xbc1ed531	-0.0096943835
149	0x3d005aee	0.031336717
150	0x3cd7f4ff	0.02636194
151	0xbccb61bd	-0.024826879
152	0xbbd4fddd	-0.0064999894
153	0x3d52d65e	0.051473968
154	0xbd432d3a	-0.047650553
155	0xbd0a8908	-0.03382209
156	0x3a25c7df	0.00063240336
157	0x3bcbe1f0	0.006222002
158	0x3cba20be	0.02272069
159	0xbc8967bd	-0.0167731
160	0xbca2fbee	-0.01989552
161	0x3d375df0	0.04476732
162	0xba21b129	-0.00061680615
163	0x3cb00256	0.021485489
164	0x3d116c46	0.03550365
165	0xbcfecf6b	-0.031104764
166	0xbd8f22d8	-0.06989068
167	0xbd12625e	-0.03573834
168	0x3c9b27c2	0.018939856
169	0xbca9ce64	-0.020728298
170	0xbd56f5f0	-0.052480638
171	0xbce59411	-0.028024705
172	0xbc1044c5	-0.008805458
173	0xbcdfdca8	-0.027326897
174	0xbc784dc7	-0.015155262
175	0xbda4fc22	-0.08055903
176	0xbd9b2d29	-0.07576973
177	0xbb454850	-0.0030102916
178	0xbd9e59cb	-0.077319704
179	0xb98799f5	-0.00025863913
180	0x3ca7caf8	0.020482525
181	0xbb010ce9	-0.0019691533
182	0xbcd96494	-0.026537217
183	0xbcaef8f5	-0.021358946
184	0xbd25f794	-0.040519312
185	0xbc9cf490	-0.019159585
186	0x3c80c8b0	0.015720695
187	0xbd40f96e	-0.047112875
188	0xbd79ddc8	-0.061002523
189	0xbd49dd6e	-0.049283437
190	0x3cecbe18	0.028899238
191	0x3b09d11c	0.002102918
192	0xbd1c31d2	-0.03813345
193	0x3d2de9a4	0.042459145
194	0xbbccb1c0	-0.0062467754
195	0xbbdbd850	-0.006709136
196	0x3c127b28	0.008940496
197	0xbcd76c48	-0.02629675
198	0xbd36e72a	-0.04465405
199	0xbce5bf88	-0.02804543
200	0x3c3df6a0	0.0115944445
201	0xbd0144f0	-0.031559885
202	0x3d6dc984	0.05805351
203	0x3b8bf780	0.0042714477
204	0xbd74e612	-0.059789725
205	0x3d01c97e	0.0316863
206	0xbd04939c	-0.032367334
207	0xbc9dd6f8	-0.019267544
208	0xbd62b447	-0.055347707
209	0x3bcad511	0.0061899503
210	0x3c99ff6f	0.018798558
211	0xbc07204d	-0.008247447
212	0x3cefed6e	0.02928802
213	0xbd88b789	-0.066756316
214	0xbbed3a2f	-0.007239602
215	0x3cde9603	0.02717114
216	0x3d08022c	0.033205196
217	0x3c73687f	0.014856457
218	0xbd1d9732	-0.03847427
219	0xbccb19e8	-0.024792627
220	0x3d68e66a	0.056860365
221	0xbc9a8063	-0.018860048
222	0xbc574fd0	-0.013141587
223	0xbc4a327f	-0.012341141
224	0x3bfac6e0	0.0076531023
225	0x3d07e202	0.033174522
226	0xbd31b0c8	-0.043381482
227	0x3d5375a1	0.05162585
228	0x3d2b2d95	0.041791517
229	0x3d260f22	0.040541776
230	0xbd6a76fc	-0.05724238
231	0xbd3bbc6e	-0.045833997
232	0xbabeb5c0	-0.0014550015
233	0x3d72fd02	0.05932332
234	0x3b85df79	0.004085478
235	0xbc875f0a	-0.01652481
236	0xbd3bf3ee	-0.045886926
237	0x3c4b9760	0.012426227
238	0xbbef7900	-0.0073081255
239	0xbd426b44	-0.047465578
240	0xbd7edf85	-0.062224884
241	0xbd6bd16e	-0.057572775
242	0x3d358dc4	0.04432465
243	0xbd07cb2e	-0.03315275
244	0x3d04ce0a	0.032423057
245	0xbd86decf	-0.06585466
246	0x3d434921	0.047677163
247	0xbc0a5a76	-0.008444419
248	0x3c96f5a1	0.018427672
249	0x3d1881af	0.03723305
250	0xbd70d6fa	-0.058798768
251	0x3d17dd32	0.037076183
252	0xbd092057	-0.033478107
253	0x3cd9f56b	0.026606282
254	0x3d4be11d	0.04977523
255	0xbd5e6e8c	-0.054304644

fc1.bias f4 [64]
0	0xbd919bc2	-0.071097866
1	0x3d580e99	0.052748296
2	0xbda528d2	-0.080644265
3	0xbd3c01c7	-0.045900133
4	0xbcab0ad4	-0.020879187
5	0xbd54b710	-0.051932395
6	0xbd589711	-0.052878443
7	0x3cb3ed06	0.021963608
8	0xbd672de9	-0.056440268
9	0xbd4a33d0	-0.04936582
10	0x3e12ea48	0.14347184
11	0x3e47d8be	0.19516274
12	0xbd4ab559	-0.049489353
13	0xbcc3fa1c	-0.023922972
14	0x3e4f74bb	0.20259373
15	0x3e27ea66	0.1639801
16	0x3d042a70	0.032267034
17	0x3df1ea3d	0.118122555
18	0x3d28306b	0.0410618
19	0x3d66a624	0.056310788
20	0x3d6b794e	0.057488732
21	0xbccacbcf	-0.024755387
22	0x3d8a8355	0.06763331
23	0x3d297bfe	0.041378014
24	0x3d1b0966	0.03785076
25	0xbc8137b3	-0.01577363
26	0x3d87f9c6	0.066394374
27	0x3e0582b8	0.13038146
28	0x3e33aa80	0.1754551
29	0x3d9f772f	0.07786404
30	0x3d2e82f1	0.042605344
31	0xbd0e8f4a	-0.03480462
32	0xbca2b6db	-0.019862583
33	0x3d075623	0.03304113
34	0x3dd76fb1	0.1051935
35	0xbbe3f893	-0.0069571226
36	0xbca807e0	-0.020511568
37	0xbd965c17	-0.073417835
38	0x3e344527	0.17604505
39	0x3d8ceacb	0.06880721
40	0x3d3e6034	0.046478465
41	0x3d11cdea	0.035596766
42	0x3e13f9e5	0.14450796
43	0x3e069813	0.13143949
44	0xbd419720	-0.047263265
45	0x3daaeea5	0.08346299
46	0x3d92844a	0.071541384
47	0xbd6a7282	-0.05723811
48	0xbd80c6e9	-0.06287939
49	0x3de41601	0.111370094
50	0xbcd82603	-0.026385313
51	0x3da8b69d	0.08237956
52	0x3deed209	0.11661155
53	0x3d6467ad	0.055762935
54	0xbd987fb3	-0.07446232
55	0x3d9b7d86	0.07592301
56	0xbd281f3b	-0.04104541
57	0x38982285	7.2543546e-05
58	0xbd912c99	-0.070885845
59	0xbae3c94d	-0.0017378718
60	0x3d338cb7	0.043835368
61	0x3d052620	0.032507062
62	0x3e02d81d	0.12777753
63	0x3d155973	0.03646226

fc2.weight f4 [2, 64]
0	0xbcd91ae4	-0.02650208
1	0xbc96bb3b	-0.018399825
2	0x3dba6289	0.09100825
3	0x3db4cd4d	0.088282205
4	0x3dce62d7	0.10077446
5	0x3cd402c2	0.025880221
6	0x3d835670	0.06412971
7	0xbdafc75a	-0.08582945
8	0x3d8b9c3f	0.06816911
9	0x3c93d9a1	0.01804811
10	0xbdbf42c8	-0.093389094
11	0x3e3eaf3f	0.18621539
12	0x3d3fc268	0.04681626
13	0x3da596ae	0.080853805
14	0x3e15aade	0.14615962
15	0x3c32195a	0.010870302
16	0xbdc121f1	-0.09430302
17	0x3dee14b3	0.11625042
18	0xbaef6e3f	-0.0018267109
19	0x3ded99a4	0.1160157
20	0xbd868ff8	-0.065704286
21	0x3d6a5ce1	0.057217482
22	0xbdaefc03	-0.08544161
23	0xbda930d9	-0.0826127
24	0xbdd87970	-0.10570037
25	0x3d87d2e1	0.06632019
26	0x3dbc430a	0.09192474
27	0x3d5b387a	0.053520657
28	0x3e3e8335	0.18604739
29	0xbdc0d29d	-0.09415171
30	0xbd262bad	-0.040568996
31	0xbdcd459f	-0.10023045
32	0x3c88e090	0.016708642
33	0x3c60d7ad	0.013723296
34	0xbdc79ae8	-0.09746343
35	0x3db94963	0.090472005
36	0x3d523429	0.051319275
37	0x3c3d92dd	0.0115706595
38	0x3d4b19ce	0.049585156
39	0xbd33e386	-0.043918155
40	0x3bdae54e	0.0066801673
41	0xbd8878ac	-0.06663641
42	0x3e17f218	0.14838445
43	0x3e2e4390	0.1701796
44	0xbccab92f	-0.024746506
45	0xbde5c68d	-0.11219511
46	0xbd96bf4d	-0.073607065
47	0x3d919646	0.071087405
48	0x3d5aed0f	0.053448733
49	0x3e0a37a4	0.13497788
50	0x3d061b45	0.03274085
51	0xbd70b623	-0.05876745
52	0x3e08c57b	0.13356583
53	0x3ce5e851	0.028064879
54	0xbd0e782b	-0.03478257
55	0xbdc30e69	-0.09524233
56	0x3c4d5c30	0.012534186
57	0x3c8f1ec6	0.017470729
58	0x3da240c8	0.07922512
59	0x3d438d24	0.047742024
60	0xbdbfc942	-0.09364559
61	0xbd529cf8	-0.05141923
62	0x3d86b458	0.065773666
63	0xbd96c367	-0.07361489
64	0xbcddcd23	-0.027075356
65	0xbd247b64	-0.040156737
66	0xbdebb0ff	-0.11508369
67	0x3c544a0e	0.012957109
68	0xbdbd19a1	-0.09233404
69	0xbd1bdedd	-0.038054336
70	0xbaac7d58	-0.0013159914
71	0xbda4c38e	-0.080451116
72	0xbdaa95ce	-0.08329354
73	0x3d46642c	0.048435375
74	0x3db847dd	0.08998082
75	0x3df02765	0.11726264
76	0xbcc2f962	-0.023800556
77	0xbdcf8f6a	-0.10134776
78	0x3d60e7be	0.054908507
79	0x3e040684	0.1289311
80	0x3d0c1c9f	0.034206983
81	0xbdaed176	-0.08536045
82	0xbcd624f9	-0.026140677
83	0xbdc2e4c3	-0.09516289
84	0x3a6e6443	0.00090939197
85	0xbd8062b1	-0.06268824
86	0xbd8d8df8	-0.06911844
87	0xbd4cd185	-0.0500045
88	0x3cef1fee	0.02919003
89	0xbd8a0ae7	-0.06740361
90	0x3af95072	0.0019021167
91	0x3e189567	0.14900742
92	0x3d9a8206	0.07544331
93	0xbd57ccbf	-0.052685495
94	0x3ba4d0df	0.005029782
95	0x3dbd1d29	0.092340775
96	0xbdbf637c	-0.09345147
97	0xbdaf7bee	-0.085685596
98	0xbd921ce7	-0.07134419
99	0xbdb9329b	-0.09042855
100	0xbd972f5b	-0.07382079
101	0xbcc5de1a	-0.024153758
102	0x3dfe5d1c	0.12420103
103	0x3bcc24dd	0.0062299804
104	0xbd3991ca	-0.04530505
105	0xbd44f72e	-0.04808729
106	0x3dc61e27	0.0967372
107	0x3db6a85d	0.089188315
108	0x3d55d8e4	0.052208796
109	0xbcdfa3f9	-0.027299868
110	0x3cb15597	0.021647258
111	0xbdd73ef5	-0.10510055
112	0xbd8189b2	-0.063250914
113	0x3d68c487	0.056828048
114	0xbc33b096	-0.010967394
115	0x3d5ef23c	0.05443023
116	0x3e00687d	0.12539859
117	0x3c8d87c1	0.017276647
118	0x3d5da9a3	0.054116856
119	0x3cb9507a	0.022621382
120	0xbc8d5c5e	-0.017255958
121	0xbd1d04c2	-0.038334616
122	0x3c9bd7fe	0.019023892
123	0xbdae59c8	-0.08513218
124	0x3df9e00d	0.122009374
125	0x3d4321ea	0.047639765
126	0x3df3a819	0.118972965
127	0x3d43a60a	0.04776577

fc2.bias f4 [2]
0	0xbdc85de3	-0.097835325
1	0xbe034d04	-0.12822348

qnn.weight f4 [4]
0	0x3e971401	0.2950745
1	0x3b96fa89	0.004607503
2	0x3c49c94e	0.012316061
3	0xbb89316c	-0.0041867997

qnn._weights f4 [4]
0	0x3e971401	0.2950745
1	0x3b96fa89	0.004607503
2	0x3c49c94e	0.012316061
3	0xbb89316c	-0.0041867997
